[net]
# Training
batch=1
subdivisions=1
width=224
height=224
channels=1
momentum=0.9
decay=0.0005
angle=0
saturation = 1.5
exposure = 1.5
hue=.1

learning_rate=1e-7
max_batches = 50020
policy=steps
steps=40000,45000
scales=.1,.1

adam=0
B1=0.9
B2=0.999
eps=0.0000001
max_batches = 50000

adam=0
B1=0.9
B2=0.999
eps=0.0000001
max_batches = 800000

##########################conv1   224*224

[convolutional]
batch_normalize=1
filters=64
size=1
stride=1
pad=1
activation=leaky

[convolutional]
batch_normalize=1
filters=64
size=3
stride=1
pad=1
activation=leaky

[convolutional]
batch_normalize=1
filters=64
size=1
stride=1
pad=1
activation=linear

[shortcut]
from=-3
activation=leaky

[maxpool]
size=2
stride=2
##########################conv2    112*112
[convolutional]
batch_normalize=1
filters=128
size=1
stride=1
pad=1
activation=leaky


[convolutional]
batch_normalize=1
filters=128
size=3
stride=1
pad=1
activation=leaky

[convolutional]
batch_normalize=1
filters=128
size=1
stride=1
pad=1
activation=linear

[shortcut]
from=-4
activation=leaky

[maxpool]
size=2
stride=2

##########################conv3    56*56
[convolutional]
batch_normalize=1
filters=256
size=1
stride=1
pad=1
activation=leaky


[convolutional]
batch_normalize=1
filters=256
size=3
stride=1
pad=1
activation=leaky

[convolutional]
batch_normalize=1
filters=256
size=1
stride=1
pad=1
activation=linear

[shortcut]
from=-4
activation=leaky

[maxpool]
size=2
stride=2

##########################conv4    28*28
[convolutional]
batch_normalize=1
filters=512
size=1
stride=1
pad=1
activation=leaky


[convolutional]
batch_normalize=1
filters=512
size=3
stride=1
pad=1
activation=leaky

[convolutional]
batch_normalize=1
filters=512
size=1
stride=1
pad=1
activation=linear

[shortcut]
from=-4
activation=leaky

[maxpool]
size=2
stride=2

##########################conv5    14*14
[convolutional]
batch_normalize=1
filters=512
size=1
stride=1
pad=1
activation=leaky

[convolutional]
batch_normalize=1
filters=512
size=3
stride=1
pad=1
activation=leaky

[convolutional]
batch_normalize=1
filters=512
size=1
stride=1
pad=1
activation=linear

[shortcut]
from=-4
activation=leaky

[maxpool]
size=2
stride=2

### Upsampling branch ####
##########################conv7    7*7
[convolutional]
batch_normalize=1
filters=1024
size=3
stride=1
pad=1
activation=leaky

[convolutional]
batch_normalize=1
filters=1024
size=3
stride=1
pad=1
activation=leaky
##########################conv8    14*14

[upsample]                        
stride=2

[route]
layers = -1, -5
############################       
[convolutional]
batch_normalize=1
filters=512
size=1
stride=1
pad=1
activation=leaky

[convolutional]
batch_normalize=1
filters=512
size=3
stride=1
pad=1
activation=leaky

[convolutional]
batch_normalize=1
filters=512
size=1
stride=1
pad=1
activation=linear

[shortcut]
from=-4
activation=leaky
##########################conv9    28*28

[upsample]
stride=2

[route]
layers = -1, -16
##############################     28*28
[convolutional]
batch_normalize=1
filters=256
size=1
stride=1
pad=1
activation=leaky

[convolutional]
batch_normalize=1
filters=256
size=3
stride=1
pad=1
activation=leaky

[convolutional]
batch_normalize=1
filters=256
size=1
stride=1
pad=1
activation=linear

[shortcut]
from=-4
activation=leaky
##########################conv10    

[upsample]
stride=2

[route]
layers = -1, -27

##########################conv11   56*56

[convolutional]
batch_normalize=1
filters=128
size=1
stride=1
pad=1
activation=leaky

[convolutional]
batch_normalize=1
filters=128
size=3
stride=1
pad=1
activation=leaky

[convolutional]
batch_normalize=1
filters=128
size=1
stride=1
pad=1
activation=linear

[shortcut]
from=-4
activation=leaky
################################


[upsample]
stride=2

[route]
layers = -1, -38

################################  112*112

[convolutional]
batch_normalize=1
filters=64
size=1
stride=1
pad=1
activation=leaky

[convolutional]
batch_normalize=1
filters=64
size=3
stride=1
pad=1
activation=leaky

[convolutional]
batch_normalize=1
filters=64
size=1
stride=1
pad=1
activation=linear

[shortcut]
from=-4
activation=leaky

##############################

[upsample]
stride=2

[route]
layers = -1, -49

############################## 224*224

[convolutional]
batch_normalize=1
filters=32
size=1
stride=1
pad=1
activation=leaky

[convolutional]
batch_normalize=1
filters=32
size=3
stride=1
pad=1
activation=leaky

[convolutional]
batch_normalize=1
filters=32
size=1
stride=1
pad=1
activation=linear

[shortcut]
from=-4
activation=leaky
################################

[dropout]
probability=.25

[convolutional]
batch_normalize=1
filters=1
size=1
stride=1
activation=linear


[logistic]

